__________________________________________________________________________________________________
concatenate_73 (Concatenate)    (None, 64, 64, 384)  0           up_sampling2d_73[0][0]
                                                                 conv2d_347[0][0]
__________________________________________________________________________________________________
conv2d_354 (Conv2D)             (None, 64, 64, 128)  442496      concatenate_73[0][0]
__________________________________________________________________________________________________
conv2d_355 (Conv2D)             (None, 64, 64, 128)  147584      conv2d_354[0][0]
__________________________________________________________________________________________________
up_sampling2d_74 (UpSampling2D) (None, 128, 128, 128 0           conv2d_355[0][0]
__________________________________________________________________________________________________
concatenate_74 (Concatenate)    (None, 128, 128, 192 0           up_sampling2d_74[0][0]
                                                                 conv2d_345[0][0]
__________________________________________________________________________________________________
conv2d_356 (Conv2D)             (None, 128, 128, 64) 110656      concatenate_74[0][0]
__________________________________________________________________________________________________
conv2d_357 (Conv2D)             (None, 128, 128, 64) 36928       conv2d_356[0][0]
__________________________________________________________________________________________________
up_sampling2d_75 (UpSampling2D) (None, 256, 256, 64) 0           conv2d_357[0][0]
__________________________________________________________________________________________________
concatenate_75 (Concatenate)    (None, 256, 256, 96) 0           up_sampling2d_75[0][0]
                                                                 conv2d_343[0][0]
__________________________________________________________________________________________________
conv2d_358 (Conv2D)             (None, 256, 256, 32) 27680       concatenate_75[0][0]
__________________________________________________________________________________________________
conv2d_359 (Conv2D)             (None, 256, 256, 32) 9248        conv2d_358[0][0]
__________________________________________________________________________________________________
conv2d_360 (Conv2D)             (None, 256, 256, 1)  33          conv2d_359[0][0]
==================================================================================================
Total params: 7,846,081
Trainable params: 7,846,081
Non-trainable params: 0
__________________________________________________________________________________________________
Epoch 1/100
  1/254 [..............................] - ETA: 0s - loss: 0.6925 - acc: 0.7630 - precision_18: 0.0767 - auc_18: 0.4588 - recall_18: 0.03752021-09-25 01:31:32.840546: I tensorflow/core/profiler/lib/profiler_session.cc:164] Profiler session started.
…
Validation set shape (383, 256, 256, 1)
Test set shape (282, 256, 256, 1)
Data loaded
Normalized per channel
Applied normalization
Data augumentation on
Prep done
Training samples: 2029, channel mean: 4.962215403927742e-17,
Validation samples: 383, channel mean: 0.0053282898964007895
Model built.
Model: "functional_39"
__________________________________________________________________________________________________
Layer (type)                    Output Shape         Param #     Connected to
==================================================================================================
input_20 (InputLayer)           [(None, 256, 256, 1) 0
__________________________________________________________________________________________________
conv2d_361 (Conv2D)             (None, 256, 256, 32) 320         input_20[0][0]
__________________________________________________________________________________________________
conv2d_362 (Conv2D)             (None, 256, 256, 32) 9248        conv2d_361[0][0]
__________________________________________________________________________________________________
max_pooling2d_76 (MaxPooling2D) (None, 128, 128, 32) 0           conv2d_362[0][0]
__________________________________________________________________________________________________
conv2d_363 (Conv2D)             (None, 128, 128, 64) 18496       max_pooling2d_76[0][0]
__________________________________________________________________________________________________
conv2d_364 (Conv2D)             (None, 128, 128, 64) 36928       conv2d_363[0][0]
__________________________________________________________________________________________________
max_pooling2d_77 (MaxPooling2D) (None, 64, 64, 64)   0           conv2d_364[0][0]
__________________________________________________________________________________________________
conv2d_365 (Conv2D)             (None, 64, 64, 128)  73856       max_pooling2d_77[0][0]
__________________________________________________________________________________________________
conv2d_366 (Conv2D)             (None, 64, 64, 128)  147584      conv2d_365[0][0]
__________________________________________________________________________________________________
max_pooling2d_78 (MaxPooling2D) (None, 32, 32, 128)  0           conv2d_366[0][0]
__________________________________________________________________________________________________
conv2d_367 (Conv2D)             (None, 32, 32, 256)  295168      max_pooling2d_78[0][0]
__________________________________________________________________________________________________
conv2d_368 (Conv2D)             (None, 32, 32, 256)  590080      conv2d_367[0][0]
__________________________________________________________________________________________________
max_pooling2d_79 (MaxPooling2D) (None, 16, 16, 256)  0           conv2d_368[0][0]
__________________________________________________________________________________________________
conv2d_369 (Conv2D)             (None, 16, 16, 512)  1180160     max_pooling2d_79[0][0]
__________________________________________________________________________________________________
conv2d_370 (Conv2D)             (None, 16, 16, 512)  2359808     conv2d_369[0][0]
__________________________________________________________________________________________________
up_sampling2d_76 (UpSampling2D) (None, 32, 32, 512)  0           conv2d_370[0][0]
__________________________________________________________________________________________________
concatenate_76 (Concatenate)    (None, 32, 32, 768)  0           up_sampling2d_76[0][0]
                                                                 conv2d_368[0][0]
__________________________________________________________________________________________________
conv2d_371 (Conv2D)             (None, 32, 32, 256)  1769728     concatenate_76[0][0]
__________________________________________________________________________________________________
conv2d_372 (Conv2D)             (None, 32, 32, 256)  590080      conv2d_371[0][0]
__________________________________________________________________________________________________
up_sampling2d_77 (UpSampling2D) (None, 64, 64, 256)  0           conv2d_372[0][0]
__________________________________________________________________________________________________
concatenate_77 (Concatenate)    (None, 64, 64, 384)  0           up_sampling2d_77[0][0]
                                                                 conv2d_366[0][0]
__________________________________________________________________________________________________
conv2d_373 (Conv2D)             (None, 64, 64, 128)  442496      concatenate_77[0][0]
__________________________________________________________________________________________________
conv2d_374 (Conv2D)             (None, 64, 64, 128)  147584      conv2d_373[0][0]
__________________________________________________________________________________________________
up_sampling2d_78 (UpSampling2D) (None, 128, 128, 128 0           conv2d_374[0][0]
__________________________________________________________________________________________________
concatenate_78 (Concatenate)    (None, 128, 128, 192 0           up_sampling2d_78[0][0]
                                                                 conv2d_364[0][0]
__________________________________________________________________________________________________
conv2d_375 (Conv2D)             (None, 128, 128, 64) 110656      concatenate_78[0][0]
__________________________________________________________________________________________________
conv2d_376 (Conv2D)             (None, 128, 128, 64) 36928       conv2d_375[0][0]
__________________________________________________________________________________________________
up_sampling2d_79 (UpSampling2D) (None, 256, 256, 64) 0           conv2d_376[0][0]
__________________________________________________________________________________________________
concatenate_79 (Concatenate)    (None, 256, 256, 96) 0           up_sampling2d_79[0][0]
                                                                 conv2d_362[0][0]
__________________________________________________________________________________________________
conv2d_377 (Conv2D)             (None, 256, 256, 32) 27680       concatenate_79[0][0]
__________________________________________________________________________________________________
conv2d_378 (Conv2D)             (None, 256, 256, 32) 9248        conv2d_377[0][0]
__________________________________________________________________________________________________
conv2d_379 (Conv2D)             (None, 256, 256, 1)  33          conv2d_378[0][0]
==================================================================================================
Total params: 7,846,081
Trainable params: 7,846,081
Non-trainable params: 0
__________________________________________________________________________________________________
Epoch 1/100
  1/254 [..............................] - ETA: 0s - loss: 0.6929 - acc: 0.7967 - precision_19: 0.1574 - auc_19: 0.5000 - recall_19: 0.04872021-09-25 02:13:19.698195: I tensorflow/core/profiler/lib/profiler_session.cc:164] Profiler session started.
…
